final_model.pth (torch, 21930 bytes, 6 tensors)

l1.weight f4 [8, 318]
00000000: c45b d23e 223c 4b3f 4b55 883e 029e 083f
00000010: 358f 453f 9c70 b93e 605b c13f cebe 583e
00000020: 44cc e3be 49b7 dabe 2f01 54be 7ee5 673f
00000030: 39d9 c23f bf0a 79bf 67bc 813f d5e6 b43d
00000040: 341e e4be 29a4 713f 3f47 0c3f 767c 06bf
00000050: a11e ca3e 2606 ba3f 51d9 7fbe 388c b3be
00000060: 5339 513f d150 62bf 3c65 413e f2a2 263e
00000070: f116 0c3e cbf1 923e 5546 3bbe b26e d23d
00000080: 5270 343f 89c3 c8be 60fd 923f 3253 bc3e
00000090: 6e54 c6be 0251 0140 21e7 703f 2890 43bd
000000a0: 5f7a 2f3f 9cad cd3f 6f4c 1040 b85d 8a3f
000000b0: a119 2f3f 92c6 6abe 9b19 873e 09c3 a03e
000000c0: 005d 4ebe c7ba 253f 9280 413f 3161 cfbe
000000d0: 6b2a 6cbf 6157 37bf 0e53 963f d27d e43f
000000e0: f353 b4be 9609 0040 e6b5 71be 5004 d5be
000000f0: 183e 643f 1133 b2be bce2 46bf d623 00bf
00000100: 311c bf3f a68c be3f 9d02 f63e 8b53 e83d
00000110: 331c 283e bc9f 293e dd69 3abf b0d8 20bf
00000120: 4a84 743f 0f75 c7be b76f 723f 0d0b 9c3f
00000130: 4c75 9ebe be78 84be 2a78 df3f ae55 9cbe
00000140: aba7 9abe 56a4 543f 5b45 7b3f bbd5 4ebd
00000150: c5d4 623e 3736 5e3f bb52 7bbf 9448 403f
00000160: 7ad0 883e 1092 283f 7f3a a8be b435 023f
00000170: e85b 153f e4d8 33bf f1f3 c9be 3a61 513f
00000180: 368f 9e3f 7c86 593f de1d 9c3f 3c4a a23f
00000190: e264 913f bd86 803f 7120 ea3e 84b8 5e3f
000001a0: a3c5 8e3f b076 a43f e95c a13f ade8 ae3e
000001b0: 4122 993f 5411 953f 9abf 40be c799 073f
000001c0: adb0 693f 0f6b 9c3f 7f1f a33f 8fec 9c3f
000001d0: dba7 913f c4fe d13f 6aa9 b23f dc26 103e
000001e0: 6d5f 633f 8900 8fbd cd81 eebe 2b5a 32bf
000001f0: e1bd 9b3d 73ed 4f3f 0c12 373f 037f 0c3f
00000200: edff f93e 64f1 e03e ed3d 963e 40ff 0740
00000210: 576e 8d3f 496a 53be 9b81 1140 c1bf f03f
00000220: 4c6e 133c 95ec 89be 5c50 fd3e 3e2e 103f
00000230: 2d43 663e 62ee afbe 0d34 923e db19 8e3f
00000240: bfac f93f 467e f0bd 6943 5a3e 5f84 7c3f
00000250: 4f06 9e3f 2209 853f 0d8d 7a3f 48ed 60be
00000260: aa90 61bf 45fa 9bbe 7081 873f 47f6 513f
00000270: 7e36 e8be 3895 c73d 3cef 77be de6d c63e
00000280: f066 c7be 11c9 dfbe 9c8e 303f 31f1 36bf
00000290: d2ea d83e fdb7 3d3f 8ed1 72bf 994a 763e
000002a0: 4615 193e 330c 52be e9b3 d3be 2692 2f3c
000002b0: b6c6 efbd dcdd 093f 702d 083f 3de4 eb3f
000002c0: 7ac8 0c3f 5bb5 e1be a514 cabe cdd2 7f3d
000002d0: 1304 37be d16d 56bf 7f4b b8be e4b1 b0bf
000002e0: 9604 2dbe d703 833f f894 1b3f 33d4 64be
000002f0: 6621 4c3f 6bdf a23e ca73 b9be c0a7 6bbe
00000300: 4958 f93e ee37 b33f 5d4b 853d 1c1d 7a3f
00000310: daea febe 97b9 003f 6308 ae3f c697 7e3f
00000320: a1e2 b93f 8fa0 a23f 4c6c 323e 04d8 a63f
00000330: 1232 0d40 d009 b53f 3376 aa3f 8e41 073f
00000340: 9b27 80be 12c5 1ebb bac5 143e 0b73 90bd
00000350: 7c34 2c3f d6f9 6f3e ea44 44bc 707b 443f
00000360: fc50 953f 464c b23f 7764 b53f 3b06 9b3f
00000370: de17 3c3f 01bc 82be 6304 623f b81e bebe
00000380: 4a99 b63d 9788 cd3b b1d3 95be 3ad9 fbbe
00000390: 0a3d 743f a92b 563f a4dc a53f b08a 7d3f
000003a0: 530d 8cbe b0f7 933f a201 90bf 98b1 113e
000003b0: 4579 6b3f f83b 853f 8bd7 833f dd61 14bf
000003c0: db4c 683e 8975 2540 e005 103f 51b4 633f
000003d0: 2792 873f cc0c 8ebe f223 323f 6f1e cfbe
000003e0: bf2b 3940 0498 2d3f c554 eb3e 0bdf d43f
000003f0: a464 b0bf 81d8 d23f fe15 bc3f 4c07 4ebe
0.41085637 0.7938863 0.26627573 0.533661 0.7717164 0.36218727 1.510601 0.21166536
-0.4449178 -0.4271796 -0.20703577 0.9058455 1.5222541 -0.9728202 1.0135621 0.0883309
-0.44554293 0.94391114 0.5479621 -0.5253366 0.39476493 1.4533126 -0.24985243 -0.35067916
0.81728095 -0.88404566 0.18886274 0.16273096 0.13680626 0.28700098 -0.18288548 0.1027502
0.7048389 -0.3921168 1.1483574 0.36782223 -0.3873629 2.0205693 0.94102675 -0.0477449
0.685461 1.6068606 2.2546651 1.0809851 0.6839848 -0.22927311 0.26386723 0.313988
-0.20152664 0.64738125 0.7558681 -0.4050384 -0.92252225 -0.71617705 1.1744096 1.7850897
-0.35220298 2.000585 -0.23604545 -0.41604853 0.8915725 -0.34804586 -0.7768972 -0.5005468
1.4930478 1.4886672 0.4804887 0.113440596 0.16417007 0.1656484 -0.72817785 -0.6283064
0.9551436 -0.38956496 0.94701713 1.2190872 -0.30948865 -0.2587337 1.7458546 -0.30534118
-0.30206046 0.83063257 0.98152703 -0.050496798 0.22151478 0.86801475 -0.9817311 0.75110745
0.26721555 0.65847874 -0.3285713 0.50863194 0.5834336 -0.70252824 -0.39443925 0.8178898
1.2387455 0.8497083 1.2196615 1.2678905 1.1358912 1.0041119 0.45727876 0.870003
1.1154064 1.284872 1.2606479 0.34161893 1.1963578 1.1645913 -0.1882309 0.5296902
0.9128521 1.2220172 1.2743987 1.2259692 1.137935 1.6405873 1.3957951 0.14077324
0.88817483 -0.06982524 -0.46583405 -0.69668835 0.07604576 0.81221694 0.7151191 0.54881305
0.48828068 0.43934166 0.2934412 2.1249542 1.1049298 -0.20646013 2.2735355 1.8808519
0.008998465 -0.2693831 0.49475372 0.5632056 0.22486563 -0.3436156 0.28555337 1.110164
1.9505843 -0.11742835 0.21314777 0.9863948 1.2345675 1.0393412 0.97871476 -0.21965516
-0.88111365 -0.30464378 1.0586376 0.82016414 -0.45354074 0.09745258 -0.24212354 0.38755697
-0.38945723 -0.4370809 0.68967605 -0.7146178 0.42366654 0.7410887 -0.94851005 0.24051894
0.14949521 -0.20512466 -0.41348198 0.010715997 -0.11707823 0.53854156 0.5319433 1.8429028
0.549934 -0.44083676 -0.39468876 0.062456895 -0.17872648 -0.83761317 -0.359951 -1.3804288
-0.1689628 1.0235547 0.60774183 -0.22346573 0.7973846 0.3181108 -0.36221153 -0.2301321
0.4870017 1.4001443 0.06508515 0.9770067 -0.49788553 0.5028319 1.359631 0.9945034
1.4522287 1.2705249 0.17424124 1.3034673 2.206181 1.414362 1.3317322 0.52834404
-0.25030217 -0.002422635 0.14528552 -0.07053193 0.67267585 0.23435149 -0.011979321 0.7675085
1.166534 1.3929527 1.4171284 1.2111276 0.7347392 -0.2553406 0.88287944 -0.37132812
0.08915956 0.0062723863 -0.2926307 -0.49189168 0.9540564 0.8366037 1.2957959 0.99039745
-0.27353916 1.1559963 -1.1250498 0.14227903 0.9198192 1.0408926 1.0300153 -0.5796183
0.22685568 2.5852988 0.56258965 0.88947016 1.0591477 -0.27744138 0.695861 -0.40452906
2.893295 0.6781008 0.45963112 1.6630567 -1.3780713 1.6472322 1.4694211 -0.20119971

l1.bias f4 [8]
00000000: bddc 6d3f 9c6b 593f 1fc2 ef3e 6e2b 443f
00000010: d516 723f 5dd3 db3f 7550 6e3f a759 aa3f
0.92914945 0.84929824 0.4682779 0.7662877 0.9456609 1.7173878 0.9309152 1.330861

l2.weight f4 [8, 8]
00000000: d052 f63f 52f1 1ec0 3a08 17c0 e953 f0be
00000010: eb87 ef3f d6ed bebf 16bd 4c3f 10c6 333f
00000020: bb1f ca3f 05e0 6e3f 84b0 913f 2ab5 e1bf
00000030: 1714 fcbf 346f 1240 1ff7 253f ff87 ff3f
00000040: ca64 f33e 9102 8b3f 7342 8bbf fd69 f6be
00000050: 6141 d4bf 514f 2b40 f27a 3340 3297 91bd
00000060: ee60 723f b148 94bf a82f 48bf 5860 b13f
00000070: d599 423d b22e b5be 63e1 e83f 7238 013f
00000080: 96ae a4be 313e 9fbf 046e 59bc 6106 dbbf
00000090: d8fa 1740 8256 df3f ae01 17be 9fef a23f
000000a0: 00da 86bf 1f67 693f 76a2 5cbe 722f 6d40
000000b0: 0853 0440 f149 ae3f be7e b93f 3541 e1bf
000000c0: 5615 be3e ff1b 2f40 8611 13c0 43a3 463f
000000d0: b611 7e3f e3d4 753f e6dc 08c0 56d6 af3f
000000e0: fbee ea3f 8e1f cb3f 8c24 4340 bce4 db3d
000000f0: 1bc1 8c3f 46e5 e4bf 6092 b5be 5291 a73f
1.9244022 -2.483479 -2.359877 -0.46939018 1.8713354 -1.4916332 0.7997602 0.70224094
1.5790933 0.93310577 1.1381993 -1.7633412 -1.9693631 2.2880373 0.648302 1.9963378
0.47537833 1.0860158 -1.0879654 -0.48127738 -1.6582452 2.676716 2.804379 -0.07108916
0.9467915 -1.1584684 -0.7819772 1.3857527 0.047509987 -0.35387188 1.8193783 0.50476754
-0.32164448 -1.2440854 -0.013270859 -1.7111322 2.3746853 1.7448275 -0.14746734 1.2729377
-1.0535278 0.91172975 -0.21546349 3.7060208 2.0675678 1.3616315 1.4491804 -1.7598025
0.37125653 2.7360837 -2.2979445 0.7759287 0.99245775 0.96027964 -2.1384826 1.3737285
1.8354181 1.5869005 3.0491056 0.10736987 1.0996431 -1.7882469 -0.35463238 1.3091223

l2.bias f4 [8]
00000000: e8ba b2be 7d2a 723c f6ea a03f d067 163f
00000010: f6ee 743f 2c2f 373f 35a7 a43f b09f 7abe
-0.34908223 0.014780638 1.2571704 0.58752155 0.95677125 0.71556354 1.2863528 -0.24474978

l3.weight f4 [80, 8]
00000000: 9f14 f83e 7c93 36c0 58af ad3e ee7c bd3e
00000010: f720 9fbe 98fa af3e 1eee dcbe 8514 e3bf
00000020: 9d64 f5bf ec5d 64bf 1b6c 7e3e 5ee3 c2be
00000030: 4507 0b3f c9f6 663e ee4b 073f b835 96c0
00000040: 13a6 8ac0 8be1 c03d b3e3 b73e fa6b b4bf
00000050: fc2c 7fc0 6562 9cbe 699f d8bd 7956 7d3e
00000060: 95ef 5dc0 3e13 073f c97c a53e 7eb9 82c0
00000070: f3a7 1cbf e325 a8bb 4221 9b3f 0657 32c0
00000080: 8591 ee3e f160 6e3e 4a03 123e f201 74be
00000090: 06d0 3e3f dce2 babf b906 c6be dbd7 20bf
000000a0: 5e4a 0a3f 4af4 b0bf 7afb dcbe ccb7 b6bb
000000b0: 5fac 963f 85d6 b2be e14c 0cbe 4bfa 18c0
000000c0: 3a44 71bf c05c 4d3f c936 4d3f bf13 c1be
000000d0: 8778 b63e 8634 94c0 8e80 31c0 7600 0fbf
000000e0: 3f90 b4bf 8472 103f 03ff a73f 0187 dc3e
000000f0: 705a 3d3f 8751 adbf 6788 6bbf 7f59 92c0
00000100: eff5 96bf 91a6 813e 1665 5d3f 6033 3dbe
00000110: b7f5 75c0 3640 68bf f780 923f 4112 4bbf
00000120: 5ed3 133f 29d5 fc3d 4fd9 c4be 87f0 0c3f
00000130: 0c4f c2bd e884 96bf 8242 bfc0 1955 de3e
00000140: cc83 03bf 775e 08bf f4c9 ebbe 3042 6ac0
00000150: a587 563f 4eb3 bebe 0323 043f b219 7bbf
00000160: 7b5e ef3e a4f8 73c0 c6e2 52c0 0028 1c3f
00000170: 249a 89be 16c7 eabd 0321 08be 6f19 27bf
00000180: ba14 13c0 cfea 31bf 97a2 43c0 5092 803a
00000190: 1c58 9cbe 8de8 453d ea40 b0bf 5e68 6c3e
000001a0: 8929 6dc0 cb70 c5bf 8a40 ba3d 6e82 22bf
000001b0: 7c31 77c0 e48e 073e d573 983e ef0f 103e
000001c0: 61b2 15c0 2139 67be 7799 91bf 2711 21c0
000001d0: 0d46 e1bf 4dc7 b1bc 240c 603e 3887 ba3e
000001e0: 64e5 363f df2a c8bf c9ba 3dc0 dc6c 2f3d
000001f0: 5a0d cdbf 399f 5ebf 51b3 153f b146 7f3e
00000200: 5db3 5fc0 600f 023f 0651 b03e 33f2 bd3e
00000210: c665 3dc0 7ed2 9e3e 3ac3 703f a08a 6cc0
00000220: 205c c9bf ca19 3bbf 2436 7ec0 0c50 98be
00000230: cc3e 60c0 3956 7c3d bdd1 493e 9c9d 9a3e
00000240: 8f7c 12be 8cb8 a8bf 6a6f adbf 8829 9bbd
00000250: f4ee 80bf a8ab f63c a6ee 9fbe 4dbe 2ebd
00000260: 4368 20c0 32a2 d4be 439a 2cc0 2fc8 f8bf
00000270: 0566 3f3d 7663 fbbe fd61 1d3d 74fc cf3e
00000280: 9a74 59bd a25b 92c0 90f4 4abe 6380 7d3c
00000290: 3cc0 61c0 3978 063e fee1 f1be 8c5c dd3e
000002a0: 42d6 16be 152f 11c0 ddee 4cc0 5ae6 afbe
000002b0: 7947 90bf 00ad dcbe 1576 d8be 2006 2f3f
000002c0: 757a 5dc0 4c02 88be 901f 013f 584f 2bbf
000002d0: b6ab 21c0 4c57 b03e 6583 f6bd 042b 42bf
000002e0: d429 1a3f e21e 8dbe 9086 2a3f e966 683f
000002f0: 517e aebf 1cc1 afbd 3720 9bc0 ad52 c0bf
00000300: 263b fbbf ed7a 16c0 1287 d93e e4cb 9c3e
00000310: 72f3 3bc0 50e5 0a3f 18db c0bf 70c8 f7be
00000320: ed41 c1bf 20f5 83be 095b 163f 52b2 9abe
00000330: 7d83 89c0 b396 003f c2c2 8ec0 e41a 92be
00000340: 3ed5 39c0 d3b5 56be 640f 1c3d 8a4f 6ec0
00000350: f65e 9fbf 7ecf 9a3e 5c2c b83e 1f67 d0be
00000360: 1535 16c0 8511 573e ca4c 5f3e 60e7 13bf
00000370: f30c eebd 03ea 46be ddd0 64c0 59de 63bd
00000380: 5f57 1f3f 2019 4fbe acb6 d93e a162 613f
00000390: 654b 453e 38f8 83be 157c 30bf cf19 74c0
000003a0: e365 573d 40d2 44c0 7c36 3c3f bbe4 6b3f
000003b0: fe5f 2bc0 4c02 373f 34f6 1bc0 6150 3fc0
000003c0: 3f2d 63c0 c4ac 2cbf ac69 b8be 9576 76be
000003d0: 73f7 f8bf 869a 193e f7f2 ccbf 47d6 8b3e
000003e0: 3a30 e4be aea1 82be b201 3ec0 7e1e 5fbf
000003f0: fa91 463f 3e2d a7be 6c8a 82bf 4a6d bdbd
0.48453233 -2.8527517 0.3392284 0.37009376 -0.31079838 0.34370875 -0.4315042 -1.7740637
-1.917133 -0.89205813 0.24845926 -0.38064092 0.5430797 0.22555079 0.52850235 -4.6940575
-4.3327727 0.09418019 0.35915908 -1.4095452 -3.9871206 -0.3054382 -0.1057728 0.24740018
-3.467748 0.52763736 0.32321766 -4.085143 -0.6119377 -0.0051314696 1.2119524 -2.7865615
0.46595398 0.23279168 0.14259067 -0.23828867 0.7453617 -1.4600482 -0.38677004 -0.6282937
0.54019725 -1.3824551 -0.4316061 -0.0055761095 1.1771353 -0.3492929 -0.13701202 -2.3902767
-0.9424473 0.8021965 0.8016172 -0.37710378 0.3563883 -4.6314116 -2.7734714 -0.5586008
-1.410652 0.56424737 1.3124698 0.4307175 0.7396612 -1.3540505 -0.9200501 -4.573425
-1.1793803 0.25322393 0.8648237 -0.1847663 -3.8431222 -0.9072298 1.1445607 -0.7932473
0.57744396 0.123453446 -0.38447043 0.55054516 -0.09487733 -1.175931 -5.9768686 0.434243
-0.5137298 -0.5326914 -0.46052516 -3.6602898 0.8380073 -0.37246174 0.51615924 -0.9808608
0.4675177 -3.8120508 -3.2950912 0.60998535 -0.26875412 -0.11463754 -0.13293843 -0.65273184
-2.29814 -0.69498914 -3.0567987 0.000980923 -0.30535972 0.04831748 -1.376981 0.23086688
-3.70566 -1.5425047 0.09094341 -0.6348027 -3.8623953 0.13238102 0.29775873 0.14068578
-2.3390124 -0.22580387 -1.1374959 -2.516672 -1.7599503 -0.02170148 0.21879631 0.3643129
0.7144377 -1.5638083 -2.9645255 0.042828426 -1.60197 -0.86961704 0.5847674 0.2492931
-3.4953225 0.5080471 0.34436816 0.37098846 -2.9593368 0.31019968 0.9404789 -3.695961
-1.5731239 -0.73086226 -3.9720545 -0.2974857 -3.5038328 0.061605666 0.19708915 0.3019837
-0.14305328 -1.3181319 -1.3549626 -0.07576281 -1.0072923 0.030111149 -0.31236762 -0.042661954
-2.5063636 -0.41529995 -2.6969154 -1.9436091 0.046728153 -0.4909932 0.038423527 0.40622294
-0.053089716 -4.5736856 -0.19819856 0.015472504 -3.527358 0.13131799 -0.4724273 0.4323467
-0.1473017 -2.2684987 -3.202079 -0.34355432 -1.1271812 -0.4310074 -0.4227759 0.6836872
-3.4605992 -0.26564252 0.50438786 -0.66917944 -2.5261054 0.34441602 -0.1203678 -0.75846887
0.60220075 -0.27562624 0.66611576 0.9078203 -1.3632299 -0.085817546 -4.8476825 -1.5025231
-1.9627426 -2.3512528 0.42485863 0.30624306 -2.9367337 0.54256153 -1.5066862 -0.4839511
-1.5098244 -0.25772953 0.5873266 -0.30214173 -4.297301 0.5022995 -4.461274 -0.2853614
-2.9036403 -0.20967798 0.038100615 -3.7236047 -1.2450855 0.3023643 0.35971344 -0.40703675
-2.3469899 0.21002777 0.21806636 -0.57774925 -0.116235636 -0.19425206 -3.575248 -0.05563197
0.6224269 -0.20224428 0.4252218 0.8804112 0.19267042 -0.25775313 -0.68939334 -3.8140752
0.0525874 -3.0753326 0.73520637 0.9214589 -2.677734 0.7148788 -2.436902 -2.989281
-3.5496366 -0.6745112 -0.3601812 -0.24068673 -1.9450516 0.15000352 -1.6011647 0.27311918
-0.44568044 -0.25513977 -2.9688535 -0.871559 0.7756649 -0.32651705 -1.0198493 -0.09249361

l3.bias f4 [80]
00000000: c5fc 313d 00e4 e73e add6 a1be 4a1b 15bf
00000010: ca6f 32bd 5445 6abb 677b cb3d 6641 58bb
00000020: 43ae 593c 6c46 c83d 820e 8cbe a346 31be
00000030: b3ba 22be 1ec6 ab3d 5756 b7be 7f3b 05bf
00000040: 487c 063e 7478 70be a944 47be a6a3 68bd
00000050: b89d dbbe 1b0c 1ebe af8a 28bf 66cd b2be
00000060: fc0e 2d3e 6584 533e 02b2 0dbe d5c0 893e
00000070: 4d37 6cbe 3c83 113d 43f5 c73d a87b 4ebe
00000080: f2b4 f63c 06c1 3cbe 92ba 1abe 07dc bfbe
00000090: 637a 5c3b 9a31 8f3e 4e75 c5be 1cf9 5d3e
000000a0: 7079 15be 0013 12be fd52 6abd 43c4 10bd
000000b0: 5ba0 453d 2001 a73e 2454 423d 8256 05bf
000000c0: 95d9 b1be 2100 c1be 696d 81be 6ca9 9bbe
000000d0: 13c0 263f 9826 35be 32bd 4ebc 11a7 1b3e
000000e0: ee19 753e a348 a73e 07db d7bd 64ac 02bf
000000f0: 1884 383f 74d7 5d3e c556 343d 81cd 0dbf
00000100: 554f ab3c 63d6 b03c bd00 afbe fb1b 1dbe
00000110: b3a0 893e 8707 88be bdcf 83bf 8b33 b83b
00000120: 7864 01bd eb1a bf3d 95b2 79bf e456 023e
00000130: 9d93 d8bb 9fff 35be e119 07bf 285a 04be
0.04345395 0.45291138 -0.31609097 -0.58244765 -0.04356364 -0.003574689 0.099356465 -0.0032997965
0.013286176 0.09779057 -0.2735482 -0.17312102 -0.15891533 0.08387397 -0.3580806 -0.5204391
0.13133347 -0.23483449 -0.19459786 -0.056796692 -0.42893767 -0.15434305 -0.65836614 -0.34922332
0.16900247 0.20655973 -0.13837436 0.26904932 -0.2306797 0.035525545 0.09763577 -0.20164359
0.030115578 -0.18433008 -0.15110233 -0.37472555 0.0033642284 0.2796753 -0.3856606 0.21677059
-0.14597106 -0.1426506 -0.05720805 -0.03534342 0.04824863 0.32618046 0.047443524 -0.52085125
-0.34736314 -0.3769541 -0.25278786 -0.30402696 0.6513683 -0.17690504 -0.01261835 0.1520045
0.23935673 0.32672605 -0.10539823 -0.510443 0.7207656 0.2166422 0.044028062 -0.553917
0.020911852 0.021586603 -0.3418025 -0.15342705 0.26880416 -0.26568243 -1.0297772 0.005621379
-0.031589955 0.09331306 -0.9753812 0.12728459 -0.0066093937 -0.17773293 -0.52773863 -0.12925017
